tmp.pth (torch_old, 88723 bytes, 8 tensors)

conv1.weight f4 [10, 1, 5, 5]
00000000: 0d70 3fbd bf2a 523e 1df3 613e 7769 763d
00000010: 6d02 49be 91a8 433d a498 4f3d a53a 8c3d
00000020: 0c4f 813c c92d 23be 04e8 f2bb 7d9b 433e
00000030: 9947 733e cfd6 853e b959 653e 2199 513e
00000040: 93d2 543e 69ef 9e3e 29be 353e 0f71 dabd
00000050: a14a eb3d 1086 923d 8d90 db3d 900b 893e
00000060: 4a1d 743e a8c1 3ebe 8b83 3a3e 54ef 3a3e
00000070: d487 293e 5aa9 06bc 4d44 213e 7d34 06bc
00000080: e3dc a33d dd64 273e 2114 28be 91db 8cba
00000090: 022d 96bb 3966 fdbd 5b04 46be 3c93 173e
000000a0: bcfc 263e 0a3a 18be b84a f93d b72a b73c
000000b0: b53f 1dbe 2e65 de3d 6757 053e c951 a13c
000000c0: c487 91bc 54b0 313d d92d fabd d4fa 6f3d
000000d0: 2850 53bd f212 e83d 31d3 36be b922 8fbd
000000e0: c8cc 85bd ba78 e73d 8c86 34bc 0944 95bd
000000f0: 67a9 98bd 4aa6 cb3b 1b3f a8bc 0073 adbd
00000100: bde6 14bd 1602 d0bd 6843 46be 1944 4f3d
00000110: e71c e4bd 4dfc e8bd b741 f1bd 3d28 3cbd
00000120: 671b 603d 30d4 41be bccc 28be e7d9 f43d
00000130: d6b5 053e de86 093e d638 8cbd 0845 933d
00000140: 82b8 103e 1c3a 8abd 546c ff3d a48b 563e
00000150: b044 ec3d aff5 023e 6951 4c3d d2c9 4abd
00000160: 2214 ae3d 7498 29bd fcfa 55be 5274 3ebe
00000170: 0b41 1d3e efbc 90bd 5dff d4bd cbfa 1e3e
00000180: 27b2 03bd fbb1 28be 352f 42be a1d3 19be
00000190: 7c29 2bbe 2214 28be 8ea3 10be 2ae9 20be
000001a0: 6cf2 a5bd dc6f ecbd 0be5 18be 740f 53be
000001b0: 8681 09be afd9 0d3e a6f0 db3d 54f0 35bd
000001c0: 3758 953d ae48 403e fd7f 1dbe ba9d a13d
000001d0: bd4f 003e bf94 0e3e 5af7 1c3e 96c8 cd3d
000001e0: ed96 50bd c81f 063e 22cd b53d af1b 193e
000001f0: c5f2 a23c 428d 993d 737f 49be b886 36bd
00000200: f443 c03d b759 063e 5fca f33c 8375 4abb
00000210: d5e9 c23d 7aa3 33be 1887 553e 21d2 d93c
00000220: fc08 f8bd b77e 8c3d a55d 01be 4a5e 0d3e
00000230: ecbf dfbc 12e3 3cbe de83 1e3e 2005 88bd
00000240: 6b3f f93d 5d8c f23b 3884 bbbc cb3d 523c
00000250: e68f 5dbd ce4d 803d 76dc f33c 2c33 5d3e
00000260: 1d6c 173e d3e8 3abd 9d74 f4bd dbe3 c539
00000270: 619e d4bd 8391 04bd 997c 593d 77b0 02bd
00000280: 4cf8 f63d 419e 483d 2fe3 16bd c890 eabd
00000290: fc95 39be 79cb 8b3d a987 d13c ad68 e1bb
000002a0: fd21 44be 76f2 283c 738a 0fbe cf89 1b3e
000002b0: 7652 13bb a354 d4bd 4451 3dbe 2c9d 92bc
000002c0: dd9f ef3d 054c b03c dccb 24be e260 d13b
000002d0: bd3e cabd 51f8 b23d 1ae3 253e 62aa c43d
000002e0: 87e1 37be b8b3 7e3d 47de 203d f8b5 11be
000002f0: 680a 113e d6c0 24be d24b 103e 649b 933d
00000300: 1051 7e3d 3113 1b3d 409d 163d a0ba 45be
00000310: 9962 083e d706 13be 09f2 e6bc 8e45 44be
00000320: 8737 b5bc 8587 d2ba d4b0 11be 70d2 f0bc
00000330: 3816 723e c197 403e 3784 0dbe c958 bf3d
00000340: 08ff 623e 09ad 823e de15 6e3c 8708 bf3d
00000350: 989c 373e 0605 65bd 77f5 b8bb 37d0 31be
00000360: a82e 12be 5fcc dd3c 6894 73bd 6762 a83d
00000370: 3aa9 9e3d d5e6 903d aa7f f03d 75dc b1bc
00000380: c1d7 91bd 9341 31be b94d c1bd 63fc 67bc
00000390: bcd8 65bb 3516 043e 79e9 81bc c55e e43d
000003a0: 95b8 8a3c 3430 fc3d 1943 df3d fb80 bebd
000003b0: 2ef8 94bb f1a2 b83c 0866 3e3e a4fd a43d
000003c0: 1563 483e ccd2 b5bd 79f8 a3bd 3929 a8bd
000003d0: ac05 52bd 00a2 16be 6e96 18be 1e62 343d
000003e0: 5f06 653d f1f2 933d
-0.04673772 0.20524119 0.22065397 0.060159173 -0.19629832 0.04776818 0.05068268 0.06847123
0.015784763 -0.15935434 -0.0074129123 0.19102283 0.23757781 0.26140448 0.22397508 0.2046857
0.20783453 0.3104203 0.17748322 -0.106660955 0.11488844 0.07154477 0.1072093 0.26766634
0.23839298 -0.18628561 0.18214242 0.18255359 0.1655572 -0.0082190875 0.15748711 -0.008191225
0.08001115 0.1634707 -0.16413929 -0.0010746588 -0.004583002 -0.12373013 -0.19337599 0.14802259
0.16307348 -0.1486589 0.121724546 0.022359235 -0.15356334 0.10859142 0.13021623 0.019692319
-0.017764933 0.04338105 -0.12215776 0.058588818 -0.051590115 0.113317385 -0.17854 -0.06989045
-0.065331995 0.11302324 -0.011018407 -0.07288367 -0.07454186 0.0062148916 -0.020537904 -0.084692
-0.03635286 -0.10156648 -0.19361651 0.050602052 -0.11138325 -0.113762476 -0.11780112 -0.04593681
0.054713633 -0.189286 -0.1648435 0.11955624 0.13057646 0.13430354 -0.06846778 0.07190901
0.14132884 -0.06749365 0.12471834 0.20951706 0.115365386 0.12789033 0.049882326 -0.049508877
0.08499934 -0.041405156 -0.20896524 -0.1859906 0.15356843 -0.07067286 -0.10400269 0.15525357
-0.03215232 -0.16474144 -0.1896332 -0.15022136 -0.16715044 -0.1641393 -0.14124891 -0.15713945
-0.08102879 -0.11544773 -0.14931123 -0.20611364 -0.13428316 0.13852571 0.107392594 -0.044418648
0.07292216 0.18777725 -0.15380855 0.07891412 0.12530418 0.1392393 0.15328732 0.10048024
-0.050925184 0.13098061 0.088770166 0.14951967 0.019891152 0.07497646 -0.19677524 -0.04456207
0.09387961 0.13120161 0.029759584 -0.0030892796 0.09517256 -0.1754283 0.20852315 0.026589455
-0.12111089 0.068601064 -0.12633379 0.138055 -0.027313195 -0.18445995 0.15479991 -0.066416025
0.12170299 0.0074019865 -0.022890195 0.012832115 -0.05409231 0.0626484 0.02976821 0.21601552
0.14787336 -0.045632195 -0.11936305 0.00037744534 -0.10381771 -0.032365333 0.05309734 -0.03190657
0.120590776 0.048979048 -0.036837753 -0.11453396 -0.18123621 0.06825919 0.025577383 -0.0068789334
-0.1915359 0.010311713 -0.14017658 0.15189289 -0.002247957 -0.10367706 -0.18488032 -0.017897211
0.117004134 0.021520624 -0.16093391 0.006389723 -0.09875248 0.08738769 0.16199914 0.096028104
-0.17957126 0.062183112 0.03927448 -0.14229572 0.14164126 -0.16089186 0.14091423 0.07207373
0.062089026 0.0378601 0.03677106 -0.19309473 0.13318862 -0.14358078 -0.028191583 -0.19167158
-0.022121204 -0.0016062116 -0.14227611 -0.02939722 0.23641288 0.1880789 -0.13819967 0.09343106
0.22167599 0.2552264 0.014531581 0.09327798 0.1793083 -0.055912994 -0.005644496 -0.17364584
-0.1427561 0.02707499 -0.059467703 0.08221894 0.07747121 0.07075278 0.117431 -0.021711567
-0.0712123 -0.17310171 -0.094386525 -0.014159295 -0.003507181 0.12899096 -0.015858399 0.11150888
0.016933719 0.123138815 0.1090147 -0.09301945 -0.004546187 0.022538634 0.1859361 0.080561906
0.19569047 -0.08878097 -0.08006377 -0.082109876 -0.05127494 -0.14710236 -0.14901134 0.044038884
0.05591428 0.07224072

conv1.bias f4 [10]
00000000: bf98 fbbd ea23 383e 4d20 ffbd 8162 3fbd
00000010: 1cd9 23be 0aed b13d 0ef1 00be 7913 17be
00000020: a8f3 92bd f806 ad3d
-0.122849934 0.1798245 -0.12457333 -0.0467248 -0.1600079 0.0868779 -0.12591955 -0.14753522
-0.0717538 0.08448595

conv2.weight f4 [20, 10, 5, 5]
00000000: 3b2d 85bd c649 e1bb b4b6 933d 79dc 763d
00000010: 6e7a bc3d 4c03 043d 6168 a2bd 3f84 b83c
00000020: 1fa3 6e3d a050 aebc 7ce2 c2bb 1a90 84bc
00000030: 0125 84bd ce9e 8bbd 681e 62bd afaa cb3c
00000040: 8112 5e3c f4f5 4abd 4c55 f9bc 8c07 22bd
00000050: 7746 bc3a 8305 993c 1f2b 20bc b846 323d
00000060: d89d d73c 01b7 dbbc 3055 933b 16f4 343d
00000070: 2442 3a3c ba8e 3b3d d000 0bbc 9901 47bc
00000080: e932 41bc 7d0f 4b3d c77b fc3c 9c06 f03c
00000090: 5540 4ebd b005 71bc 58d3 053d 5713 67bd
000000a0: d644 973c 6125 4fbd e463 0bbd 27a7 31bd
000000b0: e2f4 25bd bc5d 0cbc 0ff1 0c3d 6562 683d
000000c0: bbde 083d 4954 333d 6e9f 803d 1765 3bbd
000000d0: a073 1c3d cca7 693a fc19 52bc b744 59bd
000000e0: 16d5 c1bb 31f5 3b3b a03d d8bc 026d 4cbc
000000f0: d14e 54bd 2b3a 003d 1e5e c73c 665e 09bd
00000100: 98bb cdbc d334 483d 2c42 133c 7279 463d
00000110: 0fdb e63c 4045 573d 3d50 643d 3c4d 273c
00000120: b290 383d d6e6 58bd 0acd bbbb a407 833a
00000130: f6be 1d3d 9fb3 b0bb 989d 9e3c a3aa 64bd
00000140: 0b7d 01bd 1478 6a3c bb96 48bc a9ce bdbb
00000150: 700a 603d b421 3abc 8894 00bc bf69 e13c
00000160: 4012 2a3d b213 873d 342d bf3c b2cd ac3c
00000170: 064f c13a 45da 53bc 5c32 233d 7eeb 573b
00000180: 9ca9 8d3d d711 e93c 1472 1dbd 296d 793c
00000190: 51d4 66bd b1e4 023d ed46 473d 5b4d 953d
000001a0: d461 3cbc d247 40bd 8d76 6abd bf9f 27bd
000001b0: 251a ddbc f3f2 9d3c 919b 68bc e202 be3c
000001c0: 2be0 b93c 9b38 7f3d 7e93 55bd 14b6 32bb
000001d0: 7cd3 3b3c e738 1a3c 8b30 973d f1dd 333d
000001e0: 9208 8a3d 1110 bcbc 1964 bfbb c312 883b
000001f0: 330f 51bd 5a6a 803d ee07 c93b cbe2 823d
00000200: 0ee0 c3bb c67e 08bd 9c14 fd3c 6de8 0cbd
00000210: 5523 3ebd 3e5a 443d 2e85 7e3d 222d d13a
00000220: eea7 7fbd 4d03 4a3c 00f5 60bd c4ff 4abd
00000230: 6a00 4a3c 67b9 1dbc 13d2 3dbd e791 093d
00000240: dca6 e73b 7c88 783b 2f40 de3a fe91 eb3c
00000250: bfc6 07bd 3013 4f3d 4f90 6a3d 2b25 093d
00000260: d545 663d 04a8 6e3d 2e75 37bd 5e0c 113d
00000270: 5f16 d9bb 1e26 37bc b990 febc 6921 08bd
00000280: 432b 20bd 71d4 f1bc e028 533d b28d 43bd
00000290: f67e 17bd f227 883b ecb1 0d3c cdc2 59bc
000002a0: 2788 3d3d 7e40 6cbd 4bce 7f3c c467 d4bc
000002b0: eb10 2d3d cdde d13c b0c2 28bc 591e 17bd
000002c0: 4244 4f3d 1b88 a8bc 059b cfba a29b e9bb
000002d0: 2117 ad3c 17d6 643c 8769 5abd c233 b3bc
000002e0: 9ea1 2a3d b9c2 09bd e833 2ebd 9eb2 8a3c
000002f0: 450b 86bd a5c1 7ebd 48e0 9ebb 746d 32bd
00000300: fe41 c3bc 61d4 bfbc 18bc 4fbd c3f6 2b3d
00000310: 9ddd e4ba a009 65bd da03 ec3c 8ada 04bc
00000320: 22a5 c93c 9bed 683d b65e 903d db19 b23c
00000330: 52ec 103d bf99 483d 7487 29bd d77e 7e3b
00000340: 546f 2dbd 91ef 943d 67fc a5bc dc04 4ebd
00000350: f3d3 e9bb 34ff 303c 61bf eaba 810e 943c
00000360: 92ae 42bd 77d3 edbc ec2f 72bd 4e04 37bb
00000370: 359f 1abd 8f5e 47bc e49c 19bd 326f 0ebb
00000380: 3735 963c c868 5c3d 0a48 18bd b500 253d
00000390: c20c 663c 79f4 42bd d594 24bd 2c02 0cbd
000003a0: 72a0 613d c20b f2bb b556 8d3d 4be4 6bbd
000003b0: 3ae6 9b3c 4aab 5fbd 40c9 05bd 8a3c 613c
000003c0: 7af0 3a3d b25b b6bc d007 72bc 5f8f 46bc
000003d0: 7f36 5dbd 1f3f 87bb f9a3 883d 24df 2d3c
000003e0: d46f 453d fdf6 2f3d b605 b9bc 216b 39bd
000003f0: 9a77 9cbc d3dd 4abd 8bd0 48bd 1d42 9b3c
-0.06502768 -0.0068752496 0.07212582 0.060268853 0.09203039 0.032229707 -0.07930065 0.022523997
0.058261033 -0.02127868 -0.005947409 -0.016181994 -0.064523704 -0.06817399 -0.05520478 0.024861662
0.013554216 -0.049550965 -0.03043618 -0.03955798 0.0014364262 0.018679386 -0.009775906 0.043524474
0.026320383 -0.026820662 0.004496239 0.04417809 0.011368308 0.04579041 -0.00848408 -0.012146377
-0.011791923 0.049575318 0.03082074 0.029300027 -0.05035432 -0.014710829 0.032672256 -0.05641493
0.01846544 -0.050572757 -0.03403081 -0.0433723 -0.04051674 -0.00856727 0.03440958 0.05673446
0.033415537 0.043781552 0.06280409 -0.045750704 0.038196206 0.00089132483 -0.012823578 -0.053044047
-0.0059152944 0.002868008 -0.026396573 -0.012477161 -0.051832978 0.031305473 0.02433687 -0.03353729
-0.025113866 0.048878502 0.008987945 0.048455663 0.028180627 0.052556276 0.055740584 0.010211285
0.045059867 -0.052954517 -0.0057312297 0.0009996784 0.038512193 -0.0053925063 0.019362256 -0.055826794
-0.03161339 0.014310855 -0.012242968 -0.005792458 0.054697454 -0.0113605745 -0.007847913 0.027516244
0.04152131 0.065955535 0.023336984 0.021094177 0.0014748282 -0.0129304575 0.03984295 0.003294676
0.06917116 0.02845089 -0.03843887 0.01522378 -0.056354824 0.03195638 0.048651624 0.07290145
-0.011497933 -0.046943493 -0.057241965 -0.04092383 -0.026990006 0.019280886 -0.014197246 0.023194734
0.0226899 0.062309843 -0.052142613 -0.0027269172 0.011463996 0.009412981 0.07382306 0.04391283
0.06739916 -0.02295688 -0.00584079 0.004152627 -0.051039886 0.06270285 0.0061349785 0.063909136
-0.005977637 -0.033324026 0.030893616 -0.034401346 -0.046420414 0.047937624 0.06213873 0.0015958885
-0.06241601 0.0123298885 -0.05492115 -0.049560323 0.0123292 -0.009626723 -0.04634292 0.03358641
0.0070694517 0.0037923148 0.0016956384 0.028756138 -0.033148523 0.050555408 0.05726653 0.03348271
0.05621894 0.0582657 -0.044789486 0.035412185 -0.0066249813 -0.011178521 -0.031074869 -0.033234987
-0.039103758 -0.029520245 0.051552653 -0.047742553 -0.036986314 0.0041551525 0.008648377 -0.013291073
0.046272423 -0.057678692 0.015613149 -0.025928386 0.042252462 0.025618935 -0.010300323 -0.036894176
0.050602205 -0.020572713 -0.0015839046 -0.0071291486 0.021129193 0.013967059 -0.053323295 -0.021875266
0.041658036 -0.033632968 -0.04252997 0.016930874 -0.06545118 -0.062196393 -0.0048485138 -0.043561414
-0.023835178 -0.0234167 -0.05071649 0.041983377 -0.0017461065 -0.055917382 0.02881043 -0.008108744
0.024614874 0.056867223 0.07049315 0.021740844 0.035381623 0.04897475 -0.041388944 0.0038832927
-0.0423425 0.07272256 -0.020261956 -0.050297603 -0.007135862 0.010803033 -0.0017909819 0.018073322
-0.047529764 -0.029031498 -0.059127733 -0.002792615 -0.037749488 -0.012168541 -0.03750314 -0.0021733758
0.018335922 0.053810865 -0.037178077 0.040283877 0.014041128 -0.04759643 -0.040181 -0.03418176
0.055084653 -0.0073866555 0.06901304 -0.057590764 0.019030679 -0.054606713 -0.03266263 0.013747344
0.045639493 -0.02226052 -0.01477237 -0.012119143 -0.05400705 -0.0041273977 0.066719 0.010612283
0.04820235 0.042960156 -0.022585731 -0.04526818 -0.0191 -0.049527954 -0.049027007 0.018952424

conv2.bias f4 [20]
00000000: ba80 1ebc edb7 19bd 0f6e 0e3d 33a3 733d
00000010: 2293 633c 0489 2abd 5a2e ba3c 88c9 95bc
00000020: 47c9 183d 8b7f 7ebd ff67 72bd 733f 6fbd
00000030: 2440 413d 6380 6c3d 9a38 8ebc e750 49bd
00000040: 50ca ce3c 7ab0 f0ba 8b6b 283d d97a 2f3d
-0.0096742455 -0.03752892 0.03477293 0.05948181 0.01389006 -0.041634575 0.02272718 -0.018284574
0.037301328 -0.062133353 -0.05918121 -0.05841012 0.04718031 0.057739627 -0.017360974 -0.04914942
0.025242954 -0.0018363141 0.041118186 0.042841766

fc1.weight f4 [50, 320]
00000000: 808d 623d 2f46 4abd 9b2d a43c 7db0 a73b
00000010: 8d94 fbbc 18c7 8e3c a2aa d6bb 7eda 0c3c
00000020: c657 fc3c b3f2 743d fd2f 303d 438a 16bd
00000030: 811b ee3b 5d3c ce3c 4a15 893a a208 983b
00000040: 0059 803b 8575 413d 9381 57bd fbac 49bd
00000050: 2e27 39bc 7464 bfbc 82f4 5a3d 900b fe3c
00000060: 721b 60bd fe2c ba3c 5706 61bd 3e08 053d
00000070: 489c 03bc 5d09 09bd 3230 2dbd 85de 0fbd
00000080: e8df d13c 71c2 9dbc 706f 003d 29e7 a1bc
00000090: bce5 4ebc 76b6 583c 86d4 c23b d186 483d
000000a0: bbd1 57bc 930f bf3c 70bd 8cbc 674c 1abd
000000b0: d790 18bd 1255 02bc a4b4 343d ffa6 77bd
000000c0: e738 6abd d123 5bbd 879b ccbc ba1a 59bd
000000d0: 4d6e 03bd dda0 a4bb 2325 1f3d b84b 06bd
000000e0: 1d90 283d 5a4b 2f3d 5dbd 09bd 2b75 003d
000000f0: 4e21 ba3c 4a75 f8bc e613 5d3c cec6 4ebc
00000100: 7eb6 2e3d 670c 133d 3f72 b83a 543a 09bd
00000110: 7106 adbd a1f2 dbbc 86d9 8a3d 1f92 293b
00000120: 0de3 8bbd 610f 413d 190e d4ba 91db af3c
00000130: 75f0 16bd f03f 30bd a6c2 843c 22c0 e5bc
00000140: 45ea 57bd 298c 01bd d12e e13c adcf 29bd
00000150: 0b07 a03c b0a5 65bb 08e7 c43c 0f46 15bd
00000160: d55a cfb9 dc07 513c d82e 873a 98dc 853c
00000170: 5d05 55bd 76b9 56bd 1f2c e2bc a470 a8bb
00000180: 7265 24bd 80ea 73ba 8e52 133d e914 593d
00000190: b04d 31bb ec70 5a3c c620 40bd 9616 ebbc
000001a0: 55e7 26bd 709a 4b3d 09c8 153d 56cc 14bd
000001b0: 7f73 523d 3ee8 b2ba be6d 9f3c 7423 513d
000001c0: a716 463d 6bce 34bd db96 f0bc d2b4 8dbc
000001d0: 7b46 1cbd d692 043d 6a55 3b3d 98cd 23bd
000001e0: 031c 3abd 4be0 79bd 9961 2e3d ebf1 44bd
000001f0: 1f6a 493d cbd1 96bc 2b5f 8cbc e090 083d
00000200: d708 2d3c 43db 6a3d 1bc1 c7bc 6bfa 50bd
00000210: 1652 5b3d 6971 13bc b2a2 34bd 5091 953b
00000220: 80fd fb3c 516d c93c 6e0d 203d 8bbf 6f3b
00000230: b5ae 45bd 497d 453d 5809 823c 7d51 563c
00000240: 4d99 213b 9099 10bd ef34 6fbc 3943 05bc
00000250: 2be8 eb3c 847f 84bd 2675 5cbd 7ad8 2e3c
00000260: c1ca 1a3d edb2 87bd 3694 003c 80b9 b13b
00000270: 0217 bb3c 39da ab39 add8 ab3c c2ba c9bc
00000280: c956 c63c bfe7 84bc 414f 483d 545a 0e3d
00000290: 1464 963c d5f8 ff3b 2582 bebc 2b71 1a3d
000002a0: 20c1 53bd b5ae 3abd 1838 eb3c 95b0 a7ba
000002b0: 45ab 8bbb c7ce 0d3d f8ce 3ebd 276b 20bd
000002c0: 412c 73bd a1ca 12bd ff77 6ebd 3eaf 3a3d
000002d0: 4df0 12bd 3239 59bc e14f f53c a9cd e5bb
000002e0: bc5f ab3c 3d1a 8bbc 8727 49bd fd9e 13bd
000002f0: 0e80 5a3d 57a2 9abc 3116 493d ccb9 a9bc
00000300: 773f 233d 2059 493d 95fe 083d 4929 26bc
00000310: 7f46 68bd 6636 1fbc a54f babc a3d0 2b3d
00000320: adb1 6f3a b007 103d 445e 3e3d 43b9 58bc
00000330: 3f92 853d 179d 7b3d a3ed 363d 98fa 963c
00000340: b9e2 703d df44 7bbd 2943 44bc e216 99bc
00000350: d08c 00bd 9885 083c e9a9 f23b 46f2 a6bc
00000360: 772c 2b3c a88e da3c 7cf4 12bd 3cea b13b
00000370: b982 a33c 71a1 e83b 7a4b f63c 2eec 2f3d
00000380: f18d 393d b5e7 c33b 57b1 a73c 5d1e 0e3d
00000390: 4643 253d 36e2 bf3c c255 123d 5655 3bbd
000003a0: fdf6 1dbd fcd8 4c3c 9068 26bd d821 0fbc
000003b0: fe7c 7e3c 298e 24bc 8a28 2d3d 060a 4dbc
000003c0: 76c9 ecbc 5b18 05bd 15d5 97bc abc1 6c3c
000003d0: 8108 9c3b 7b32 e23c 194f 2b3d 2d7c 163c
000003e0: 0624 253d 2310 40bd 21f5 f93c e887 9bbc
000003f0: d9ec 0dbd 224d 32bd f0d1 02bd 9ed6 8abc
0.055310726 -0.04938334 0.020041278 0.0051174746 -0.030710483 0.01742892 -0.0065511027 0.0085970145
0.030803572 0.05980177 0.043014515 -0.03675295 0.0072664623 0.025175268 0.0010458615 0.004639701
0.0039168596 0.047231216 -0.052613806 -0.049237233 -0.011300845 -0.02336333 0.053455837 0.031011373
-0.054713674 0.022726532 -0.054937687 0.032478563 -0.008032866 -0.033456195 -0.04228229 -0.03512432
0.025619462 -0.019257756 0.031356275 -0.019763546 -0.012628015 0.013227096 0.005945745 0.048956696
-0.013172562 0.023322856 -0.017180175 -0.03767052 -0.037247505 -0.007954853 0.044117585 -0.060461994
-0.057183173 -0.053500954 -0.024976505 -0.053004004 -0.032087613 -0.005024059 0.038853776 -0.032787055
0.041153062 0.04279647 -0.033627857 0.03136174 0.022720959 -0.030329365 0.013493514 -0.012620641
0.042654507 0.0359005 0.0014072134 -0.03350289 -0.08448494 -0.026849093 0.067797706 0.0025874448
-0.06830416 0.047133807 -0.0016178518 0.021467002 -0.03685041 -0.043029726 0.016206097 -0.028045718
-0.05271365 -0.031627808 0.027488144 -0.04145782 0.019534608 -0.0035041384 0.024035946 -0.036443766
-0.00039549792 0.0127582215 0.0010313643 0.016340539 -0.052007068 -0.052422963 -0.02760893 -0.005140381
-0.04013581 -0.00093046576 0.035967402 0.052998457 -0.0027054362 0.013332587 -0.046906255 -0.028697293
-0.04074796 0.04970783 0.03656772 -0.036327682 0.051379677 -0.0013649536 0.019461509 0.0510592
0.048361447 -0.044142168 -0.029368808 -0.017298136 -0.038153153 0.032366596 0.045735754 -0.03999099
-0.04543687 -0.061004918 0.042573545 -0.048082273 0.04917347 -0.018410584 -0.017135223 0.03334129
0.01056119 0.05733801 -0.024384072 -0.051020067 0.05354508 -0.008999207 -0.04410047 0.0045644417
0.030760527 0.024588259 0.039075308 0.0036582674 -0.048262317 0.048215184 0.015873596 0.013080952
0.0024658025 -0.0353027 -0.014600023 -0.008133703 0.02879723 -0.06469634 -0.05382266 0.010671729
0.037791017 -0.06625924 0.007847836 0.0054237247 0.02283812 0.0003277825 0.020977343 -0.024625186
0.024211304 -0.016223786 0.048903707 0.034754112 0.018358268 0.0078116455 -0.023255417 0.03770558
-0.05169785 -0.04557677 0.028713271 -0.0012793714 -0.0042623603 0.034621026 -0.0465841 -0.03916469
-0.059368376 -0.035837773 -0.058219906 0.04557728 -0.0358737 -0.013258265 0.029945316 -0.007013042
0.020919673 -0.016980285 -0.04910996 -0.036040295 0.05334478 -0.018876238 0.04909343 -0.020718478
0.039855447 0.04915726 0.033445913 -0.010141679 -0.056707855 -0.009717559 -0.022743056 0.04194702
0.0009143602 0.03516358 0.046476617 -0.013227764 0.06522035 0.06142911 0.04466022 0.01843004
0.05880997 -0.061344977 -0.011978903 -0.01868767 -0.03138429 0.0083326325 0.007405509 -0.020379197
0.010447613 0.026679352 -0.03587769 0.0054295342 0.019959794 0.0070993234 0.030065287 0.042949848
0.04530138 0.0059785494 0.020470304 0.034696925 0.04034736 0.023423295 0.035726316 -0.04573568
-0.038565625 0.012502905 -0.040627062 -0.008736096 0.01553273 -0.010043659 0.04227499 -0.012514597
-0.028904658 -0.03249393 -0.018534223 0.014450471 0.004761756 0.027611962 0.04182348 0.009184879
0.040317558 -0.04689039 0.030512394 -0.018985704 -0.034649704 -0.04353059 -0.031938493 -0.01694804

fc1.bias f4 [50]
00000000: f830 583d 6fa9 e0bc 81f7 83bc 5482 8e3c
00000010: 865d b73c 6eef fcbc 41bc 5d3d ff4f 8ebc
00000020: bd76 6dbc d4a1 943a 75db b33c 9969 a23c
00000030: afc7 cebc 8610 0d3d 40f0 73bc 44af 18bd
00000040: e313 e4bc bc52 91bc 7643 123d cb20 4b3c
00000050: e7a2 54bd 0569 143d 1729 063c 9a83 a13c
00000060: cbfb 453d d78c 323b c524 243d 8903 84bc
00000070: b206 453c db60 2b3d ce4f 1abb 211b 51bc
00000080: 44a2 5bbc d7b9 693b 7d41 92bc b90f 193d
00000090: 73c1 e1bc 9d41 863c 6651 5d3d c1ed c5bc
000000a0: 76ab 24bd 2278 02bd 03d4 67bd 6459 143b
000000b0: 88db 563d d2b2 d03b 27ec 6a3d 84ba fcbc
000000c0: aab3 953c b10a debc
0.052781075 -0.027424542 -0.01610923 0.01739613 0.022383463 -0.030875888 0.05413461 -0.01737213
-0.014493641 0.0011339732 0.021955231 0.019825744 -0.025241701 0.034439586 -0.014888823 -0.03727652
-0.027841514 -0.017739646 0.035708867 0.012397955 -0.05191317 0.036232967 0.0081885075 0.019716073
0.04833583 0.0027244592 0.04007413 -0.016114967 0.012025522 0.041840415 -0.0023546102 -0.012762816
-0.013405386 0.0035663748 -0.017853493 0.03736851 -0.027558064 0.016388709 0.054032706 -0.024161221
-0.04020258 -0.03185285 -0.056598675 0.0022636289 0.052455455 0.0063689733 0.05735412 -0.030850656
0.018274147 -0.027104707

fc2.weight f4 [10, 50]
00000000: 2145 f6bd 2c22 0cbe 05d5 9cbd 0f23 cc3d
00000010: 1897 b4bd ce4a d9bd 1887 f0bc a32f d43d
00000020: b8da 87bd bc11 0abe 34c6 22be 9b04 433d
00000030: c9f1 cebd ce4d a53d 289c f9bc 0cfe 813b
00000040: 82da 163d 758b c63c a8c1 ce3d 9a13 d2bc
00000050: 231b 01be 6515 1ebe 0916 0dbe 4872 183b
00000060: 6b09 053e 063e babd dbc8 80bb 5fae e4bd
00000070: f733 46bc f89d d6bd 1b54 ed3d c0c6 c53b
00000080: 2bce 4abd 2708 6abb 07b5 82bd ffa4 0cbe
00000090: ac0d a3bd 6c4f 8abd 020e 76bd 6ae4 0bbe
000000a0: 7cfc 69bd 2794 f43d 72d4 a3bd fdaf dabd
000000b0: 8ba4 d23d de14 c03d 6934 403e a0e8 0dbe
000000c0: a7e1 eb3d db52 373d 754b 2d3d cf0a 0cbd
000000d0: 8131 2f3e 2c80 b93d 4f12 0c3e 6dac 333d
000000e0: 3fba 483d 00c6 d2bc 8d21 cb3c 8172 633d
000000f0: 6780 423d 2297 e7bd 3b9f f6bd e3f4 dc3c
00000100: 2bc1 b6bd 3388 963d 577a 1fbd db2b 8ebc
00000110: ccdf e63d a3ac 143c 0c87 94bd 0318 f13d
00000120: cbb2 0ebe 273c e43c d2af 663d 3af3 083e
00000130: 264d cbbd 79ea 04be 7fef 38be d3f7 203e
00000140: 0612 5ebd 5fbc 8d3c a25a a1bb add5 20be
00000150: 43e4 7bbd ae5e 83bd 8f45 593d 22fe c63d
00000160: b4fe 2c3c ef88 fabd dfbf 0fbe d30b d73d
00000170: ba6b a53b ef43 273d 1c0a efbc ec83 0c3e
00000180: eff7 283d 94f8 a6bd ee9a c1bd 368e fbbd
00000190: 4dee f5bd 45da 033e 13ee c53c 9d72 7dbc
000001a0: 1477 233c 36a6 ec3c cfee aa3b 691b b43d
000001b0: 1811 86bd ed84 ad3d 4ce3 eb3c ff09 a13c
000001c0: c4bb e43d 7842 f5bd 80e1 8c3d a776 5c3d
000001d0: 60d5 073d b883 08bc f6be 19bc dc40 f13d
000001e0: bc8a 06be f58b 813d 7997 dfbd bb0f eabc
000001f0: 9947 8dbd 8588 f93d 05e0 81bc 3577 00bd
00000200: 76c0 f0bd be28 c3bd df67 f63d 1fd3 b5bd
00000210: 10e5 3dbc a7f0 4ebc 84f9 a23d f2ba 52bd
00000220: 1384 12be 76ee 0b3d 870c e2bd c5c7 933c
00000230: 352b 4d3d 9e20 2abd c5bb cc3d a01f 9ebc
00000240: 4453 933d 2240 09be bc18 4f3d 1885 4d3d
00000250: 8247 7e3d ed6e c6bd bafd 1f3e f3b4 b63c
00000260: 2eb3 7fbd edb0 27bd c9ad 41ba 8c43 9fbd
00000270: 6334 143c e068 693c 316d 3b3d ed22 ad3d
00000280: 21ef 14be 25c3 cfbc 8133 f63a b7d2 c03d
00000290: 8133 07bd 4856 fcbb 56db 43bc 6f5a ffbc
000002a0: 9a02 7dbd 451f 0c3e f671 0b3e 1cc5 d7bc
000002b0: faaf 043e 7bba 133e cbfa 7abd a71e b53d
000002c0: 5910 bebd caed d3bc cc2f dd3a 6c16 783c
000002d0: 6afc 65bc 3ce3 34bd 3234 e4bd 8e39 32bd
000002e0: 8ebf 233d aa9c e8bd f457 c43c a3a7 02bd
000002f0: 0da1 48bc 72ca a33d 4272 0d3e eaa5 d03c
00000300: e2f1 9b3d d4c7 cbbd 0fc0 48bd 3214 72bd
00000310: 9852 19bd 26a9 6abd 2926 ef3d 4deb 1dbe
00000320: 253d 9fbd cfcb 60bd 71b5 f0bd 0ea2 bcbc
00000330: 4ed8 93bd 5876 0e3e c8af 6e3c bb6c d13d
00000340: 587e c73d 4c45 05be 8085 5f3d d81f c43d
00000350: 0fce f3bc e6df 393d 6368 4dbd 8f18 92bd
00000360: 882b 8abd 56b9 f2bd f953 aebd 0154 e3bd
00000370: 3ccc 0bbe d7cf f73d 4171 10bc 4822 dbbd
00000380: 8a21 dd3c c13e bfbc d11b 033c c054 543d
00000390: 1363 423d 8aaa c1bd 1fe7 dfba 0a44 9ebd
000003a0: 8a92 0ebd a1c1 20be 54ce 713a 86b4 093d
000003b0: d84b b53b f1c2 a73d ffc6 b5bd af56 d9bc
000003c0: 1089 1bbe 88d1 9e3d fcce 0ebe 373d 6d3c
000003d0: 9718 e3bd cc79 5a3c 1e08 d33c 7ea0 a1bd
000003e0: 2068 1abe 436e 023e b4eb ff3b 4f5f 063d
000003f0: 3c30 be3d 5a94 c03d f6b6 093e 4849 2abd
-0.12024904 -0.1368491 -0.07657818 0.099676244 -0.08817881 -0.10609971 -0.029361293 0.103606485
-0.06633514 -0.13483328 -0.15895921 0.047611814 -0.101047106 0.08071481 -0.030469969 0.0039670523
0.03682948 0.02423642 0.10095531 -0.025644112 -0.12608008 -0.15437849 -0.13777937 0.0023261476
0.12991874 -0.09093861 -0.003930194 -0.11166071 -0.01209735 -0.10479349 0.115883075 0.0060356557
-0.049513023 -0.0035710426 -0.063821845 -0.13734816 -0.07961592 -0.0675343 -0.060071953 -0.13661352
-0.057125553 0.1194232 -0.07999505 -0.10678098 0.1028529 0.0937898 0.18769993 -0.1385827
0.11517649 0.04475675 0.04230829 -0.034189995 0.17108728 0.0905765 0.13678859 0.04386561
0.049005743 -0.02572918 0.024796272 0.05552912 0.047485735 -0.11308123 -0.120420896 0.02697224
-0.089235626 0.07350197 -0.03893503 -0.017354896 0.112731546 0.009074363 -0.07252321 0.11772158
-0.13935392 0.027860714 0.05632002 0.13374034 -0.09926824 -0.12980069 -0.1806011 0.15719537
-0.054216407 0.017301736 -0.0049241344 -0.15706511 -0.061496984 -0.06414543 0.053044852 0.09716441
0.010558773 -0.12233149 -0.14038037 0.10500302 0.0050482424 0.04083627 -0.029179625 0.13722199
0.041252073 -0.08152881 -0.094533786 -0.12282984 -0.12008343 0.12876232 0.024161374 -0.0154692205
0.009977121 0.02888785 0.0052164565 0.087942906 -0.06546229 0.08472619 0.028794907 0.019658087
0.11168626 -0.119755685 0.06878948 0.053824093 0.033162475 -0.008332185 -0.009383908 0.11779949
-0.1313886 0.06325523 -0.10917563 -0.028571954 -0.06898422 0.12184242 -0.015853891 -0.031363685
-0.11755459 -0.09529255 0.120315306 -0.08878159 -0.011590257 -0.012630618 0.079577476 -0.051447816
-0.14308195 0.03416296 -0.11037546 0.018039593 0.050090034 -0.041535012 0.09996752 -0.01930219
0.07193616 -0.13403371 0.050560698 0.050175756 0.062079914 -0.09689126 0.15624133 0.02230308
-0.06242674 -0.040940214 -0.0007388262 -0.077765554 0.009045693 0.014246196 0.04575843 0.08453927
-0.14544345 -0.025361607 0.001878366 0.09415191 -0.033008102 -0.007700715 -0.011954149 -0.031171052
-0.06177006 0.13683803 0.13617691 -0.026339106 0.12957755 0.14426605 -0.06127433 0.08843737
-0.09280462 -0.025870223 0.0016875206 0.015142065 -0.014037231 -0.04416202 -0.11142768 -0.04351192
0.039977603 -0.11358006 0.02396772 -0.031898152 -0.012245429 0.07997598 0.13813117 0.025469739
0.07614495 -0.099502236 -0.049011286 -0.05910129 -0.037432283 -0.05729022 0.116772 -0.15421791
-0.07775334 -0.054881867 -0.11753357 -0.023026492 -0.07218991 0.13912332 0.014568277 0.10225817
0.09740895 -0.13014716 0.054570675 0.09576386 -0.029761342 0.04537954 -0.05014838 -0.071335904
-0.06746584 -0.11851756 -0.0851211 -0.11100007 -0.13652128 0.12100189 -0.008816064 -0.10699898
0.026993532 -0.023345353 0.008002237 0.051838636 0.047457766 -0.09456356 -0.0017082429 -0.07727821
-0.03480772 -0.15698864 0.00092241657 0.033619426 0.005532723 0.08191479 -0.08875846 -0.026530592
-0.15189004 0.07754809 -0.13946146 0.014479927 -0.110886745 0.013334703 0.025760707 -0.078919396
-0.15078783 0.12737374 0.0078100804 0.032805737 0.09286544 0.09403296 0.134487 -0.041573793

fc2.bias f4 [10]
00000000: 753c b63d 0b85 c73d 54ef ce3d fde9 cb3d
00000010: d205 ac3d 80a5 0cbe c001 04be 3603 21be
00000020: 8218 e4bd ccbf c6bd
0.0889825 0.09742173 0.10104242 0.09956739 0.08399548 -0.13735008 -0.12891293 -0.15723881
-0.11137487 -0.09704551
